____________________________________________________________________________________________________
Layer (type)                     Output Shape          Param #     Connected to                     
====================================================================================================
lambda_1 (Lambda)                (None, 160, 320, 3)   0           lambda_input_1[0][0]             
____________________________________________________________________________________________________
cropping2d_1 (Cropping2D)        (None, 65, 320, 3)    0           lambda_1[0][0]                   
____________________________________________________________________________________________________
convolution2d_1 (Convolution2D)  (None, 33, 80, 24)    2184        cropping2d_1[0][0]               
____________________________________________________________________________________________________
activation_1 (Activation)        (None, 33, 80, 24)    0           convolution2d_1[0][0]            
____________________________________________________________________________________________________
dropout_1 (Dropout)              (None, 33, 80, 24)    0           activation_1[0][0]               
____________________________________________________________________________________________________
convolution2d_2 (Convolution2D)  (None, 17, 40, 36)    21636       dropout_1[0][0]                  
____________________________________________________________________________________________________
activation_2 (Activation)        (None, 17, 40, 36)    0           convolution2d_2[0][0]            
____________________________________________________________________________________________________
dropout_2 (Dropout)              (None, 17, 40, 36)    0           activation_2[0][0]               
____________________________________________________________________________________________________
convolution2d_3 (Convolution2D)  (None, 9, 20, 48)     43248       dropout_2[0][0]                  
____________________________________________________________________________________________________
activation_3 (Activation)        (None, 9, 20, 48)     0           convolution2d_3[0][0]            
____________________________________________________________________________________________________
dropout_3 (Dropout)              (None, 9, 20, 48)     0           activation_3[0][0]               
____________________________________________________________________________________________________
convolution2d_4 (Convolution2D)  (None, 9, 20, 64)     27712       dropout_3[0][0]                  
____________________________________________________________________________________________________
activation_4 (Activation)        (None, 9, 20, 64)     0           convolution2d_4[0][0]            
____________________________________________________________________________________________________
dropout_4 (Dropout)              (None, 9, 20, 64)     0           activation_4[0][0]               
____________________________________________________________________________________________________
convolution2d_5 (Convolution2D)  (None, 9, 20, 64)     36928       dropout_4[0][0]                  
____________________________________________________________________________________________________
activation_5 (Activation)        (None, 9, 20, 64)     0           convolution2d_5[0][0]            
____________________________________________________________________________________________________
dropout_5 (Dropout)              (None, 9, 20, 64)     0           activation_5[0][0]               
____________________________________________________________________________________________________
flatten_1 (Flatten)              (None, 11520)         0           dropout_5[0][0]                  
____________________________________________________________________________________________________
dense_1 (Dense)                  (None, 300)           3456300     flatten_1[0][0]                  
____________________________________________________________________________________________________
activation_6 (Activation)        (None, 300)           0           dense_1[0][0]                    
____________________________________________________________________________________________________
dropout_6 (Dropout)              (None, 300)           0           activation_6[0][0]               
____________________________________________________________________________________________________
dense_2 (Dense)                  (None, 75)            22575       dropout_6[0][0]                  
____________________________________________________________________________________________________
activation_7 (Activation)        (None, 75)            0           dense_2[0][0]                    
____________________________________________________________________________________________________
dropout_7 (Dropout)              (None, 75)            0           activation_7[0][0]               
____________________________________________________________________________________________________
dense_3 (Dense)                  (None, 40)            3040        dropout_7[0][0]                  
____________________________________________________________________________________________________
activation_8 (Activation)        (None, 40)            0           dense_3[0][0]                    
____________________________________________________________________________________________________
dropout_8 (Dropout)              (None, 40)            0           activation_8[0][0]               
____________________________________________________________________________________________________
dense_4 (Dense)                  (None, 10)            410         dropout_8[0][0]                  
____________________________________________________________________________________________________
activation_9 (Activation)        (None, 10)            0           dense_4[0][0]                    
____________________________________________________________________________________________________
dropout_9 (Dropout)              (None, 10)            0           activation_9[0][0]               
____________________________________________________________________________________________________
dense_5 (Dense)                  (None, 1)             11          dropout_9[0][0]                  
====================================================================================================
Total params: 3,614,044
Trainable params: 3,614,044
Non-trainable params: 0
____________________________________________________________________________________________________

RAW log:
 - center: 41771
 - left: 41771
 - right: 41771
 - discarded: 14829

…
